计算机视觉实践-练习2/LeNet/models/model-mnist.pth (torch, 252095 bytes, 10 tensors)

weight f4 [6, 1, 5, 5]
000000 df 20 7f 3d ee 2d dc 3d c0 6a 27 be 86 ed 5e be
       0.062287208 0.10750948 -0.16349316 -0.21770296
000010 a5 98 6b be 88 93 40 be b4 3a 80 be f0 7b 9d be
       -0.23007448 -0.18806279 -0.25044787 -0.3075862
000020 b5 d8 92 bd ab f0 33 3e 43 5f d7 bd ee 59 fb bd
       -0.0717024 0.17572276 -0.105162166 -0.12273012
000030 22 71 18 be 6d de 98 3d a1 11 57 bc ad 85 5a 3d
       -0.14886907 0.07464299 -0.013126762 0.05335014
000040 dc 87 76 3e 70 c0 4c 3e 65 57 37 3e 01 9e 53 3e
       0.24075264 0.19995284 0.17904432 0.20665742
000050 73 5d 71 3e f9 b5 67 3e 23 57 ed 3d 0b 9f 4d bb
       0.23570804 0.22628011 0.11588886 -0.0031375315
000060 1e 41 05 3e 65 da 70 3b e6 5c e6 3d 77 9e 33 3e
       0.13013121 0.0036751267 0.11248188 0.17540918
000070 37 24 f0 bd f3 06 0e 3d 5f 49 00 3e 7e eb 06 bd
       -0.117256574 0.034674596 0.12527989 -0.032939427
000080 26 e2 2c 3e f2 c4 6c bc f0 fe 11 3e 03 df fe bd
       0.16883144 -0.014451252 0.14257407 -0.1244488
000090 33 ff bf 3d 26 ff 97 bd 4c 66 8d bc 85 3a e0 3d
       0.09374847 -0.074217126 -0.017260693 0.10948662
0000a0 55 a3 af 3d f1 91 42 3e 53 bd 4c 3e a4 dc a1 3d
       0.08576075 0.19000985 0.19994096 0.07903412
0000b0 b7 ca b4 bd ec 6a 3b 3e f3 88 10 3d 10 12 a7 3d
       -0.08827727 0.18302506 0.035286855 0.08157742
0000c0 6c 36 b3 3c bd a0 a7 3d 6f e4 a3 bd 4d dc 9a be
       0.021876536 0.08184955 -0.080025546 -0.302462
0000d0 73 35 e4 bc e9 e1 22 3e 30 4a 01 3e 5d ad 0a be
       -0.027857518 0.1590649 0.12625957 -0.13542695
0000e0 ea 16 5d be 88 61 83 3c 89 31 36 bd 2d 84 cc 3e
       -0.21590772 0.016037717 -0.044480834 0.39944592
0000f0 65 f5 22 be 8e ae 9f be 20 c9 6c be 25 12 8a bd
       -0.15913923 -0.31187862 -0.23123598 -0.06741742
000100 c1 1b 8c 3e fd 3f 19 bd 5c c0 82 bc 7c b3 8f be
       0.27364925 -0.03741454 -0.015960865 -0.28066623
000110 a1 f2 84 be 7b e0 16 3e dc fe 9b bc dd f5 a4 3d
       -0.2596636 0.1473407 -0.019042425 0.08054707
000120 56 ea 8d be 73 67 b4 bc eb 59 2c be a2 7d 21 3e
       -0.27717847 -0.022021985 -0.16831176 0.15770581
000130 8e 88 73 3e 40 e8 1d 3e 44 ad ac 3b 70 dd b0 3d
       0.2378256 0.15420628 0.0052696783 0.08635986
000140 75 1f 54 3e 14 c3 ef 3d 9b 4f 22 3e 01 1c c1 3d
       0.20715125 0.1170713 0.1585068 0.094291694
000150 d3 89 af 3e 75 75 6f be 49 31 55 bd 00 dd 78 bd
       0.3428484 -0.2338465 -0.052048955 -0.060757637
000160 3a 87 38 3e ba 4a a1 3d 80 e9 f4 bd 24 d9 92 be
       0.18020335 0.07875581 -0.11958599 -0.2868129
000170 09 4f a2 bd 5b d2 84 be 51 0e 94 be 94 d3 2a be
       -0.07925231 -0.25941738 -0.28917173 -0.16682273
000180 a6 80 b7 bd 28 85 99 be 3f 4d ab bd 5d cd 9b be
       -0.089600846 -0.29984403 -0.08364343 -0.30430117
000190 dc 57 ca bd c4 08 f5 bc 89 79 50 3d b5 6c bb 3d
       -0.09880039 -0.029911406 0.050897155 0.091515936
0001a0 ed 6f 0a bd ce 96 0f 3d b8 c8 8b 3e 10 f1 ff 3d
       -0.033798147 0.035055928 0.27301574 0.12497151
0001b0 c5 0a 4f be fb 5b ee bc 87 3a 12 3e f5 45 3a 3d
       -0.20218952 -0.029096594 0.14280139 0.045476872
0001c0 3e e2 f8 bd 85 35 8d 3c e4 46 9e be 38 05 81 3e
       -0.12152527 0.017237434 -0.3091346 0.25199294
0001d0 2f aa 04 3e 3b ca 3a be 70 04 43 be 9b d6 5d 3c
       0.12955545 -0.18241207 -0.19044662 0.013539935
0001e0 20 4a 34 3e 15 62 07 3e 8c cf 02 3e 44 97 88 be
       0.17606401 0.13221009 0.12774485 -0.26677907
0001f0 ae 33 4a be f9 5c 87 3e e4 22 8e 3e 93 0d 23 3e
       -0.19746277 0.2643812 0.27760994 0.15923147
000200 2a ee 09 be 10 d5 af be af f9 96 3e 62 16 aa 3d
       -0.13469759 -0.3434224 0.29487368 0.083050504
000210 90 d2 74 be 4a 1a c4 be 38 fe 84 be 4c 19 71 3d
       -0.23908448 -0.38301307 -0.25975204 0.058862016
000220 7f 62 88 be f4 fd d5 be 89 04 1e be d6 36 d1 bd
       -0.26637647 -0.41795313 -0.15431418 -0.10215537
000230 8d 09 29 bd b5 b2 bb be 0c 23 37 be 8f ae 79 be
       -0.041268874 -0.3665978 -0.17884463 -0.24382995
000240 8b d4 fa 3c da fa bb be 3f 18 ec bd d1 c0 9a bd
       0.030618927 -0.36714822 -0.11528062 -0.07556308
000250 e9 48 7d bd 91 2b 23 3e
       -0.06183711 0.15934588

bias f4 [6]
000000 b1 12 ab 3c bb fc ca bc ce 5f 2c 3e 23 b5 50 3d
       0.020882936 -0.024778714 0.16833422 0.050953995
000010 23 0c b7 bd 05 25 a5 3d
       -0.08937862 0.080637015

weight f4 [16, 6, 5, 5]
000000 02 84 0b 3d 83 20 c7 3c fe e0 68 bd 6b 3d 2c 3c
       0.03406144 0.024307495 -0.056855194 0.01051269
000010 51 c7 b3 bd d4 ac ea 3d cc 1c d5 3d 88 38 b9 3d
       -0.08778251 0.114587456 0.10405883 0.090439856
000020 57 80 14 3e 11 9a 3d 3c 2d 9a ba 38 2d 0c 08 bd
       0.14502083 0.011572377 8.8978886e-05 -0.033214737
000030 24 b1 d7 bc 00 27 29 3e 06 27 ee 3d 9e c2 01 be
       -0.026329584 0.16518784 0.11628537 -0.12671897
000040 a3 72 b6 bc ca c6 a9 3a 36 0c 05 3d 93 6d 9c 3d
       -0.02227146 0.001295292 0.03248235 0.07638087
000050 99 00 4e bd 63 88 94 3c 0f 52 33 bb 11 f5 a3 bd
       -0.05029354 0.01813144 -0.0027362143 -0.08005727
000060 5c 83 62 3d 5d c3 b9 3d 9a 01 c0 bc 54 61 4d bd
       0.055301055 0.09070466 -0.023438264 -0.050141647
000070 da 91 03 be 4c 5f ad bd d0 4e a9 3d e6 aa 8e 3d
       -0.12848607 -0.08465442 0.082669854 0.0696619
000080 64 d3 ab 3c ea f1 0e bd 61 c1 f6 3b 2e a6 c2 3d
       0.020974822 -0.034898676 0.007530377 0.095043525
000090 32 59 88 3c 8b 0e 46 3c 4c 21 87 bd 55 15 1e 3d
       0.016644094 0.012088428 -0.06598148 0.038594563
0000a0 78 bd 40 3d 16 3a 07 bd de fe 6f bc 05 62 d0 bd
       0.04705569 -0.03301438 -0.014648167 -0.10174946
0000b0 5d f8 3c bd de d2 02 bc f5 c3 15 3d a4 26 23 bd
       -0.046135295 -0.007984845 0.036563832 -0.039831772
0000c0 99 73 f2 bd 67 e7 96 3c 7f de 6b 3d 88 92 c5 bd
       -0.11838455 0.018420888 0.057585236 -0.09647089
0000d0 89 b0 9b 3d b4 eb 46 3e ac 54 20 bb 46 f4 b6 3d
       0.07602031 0.19425851 -0.002446453 0.0893331
0000e0 41 0b cb 3c be 9d ac bd ed 78 c2 bc 0c 81 ae 38
       0.02478564 -0.084285244 -0.023739303 8.3210034e-05
0000f0 0d 9c 9b bd 6b 6c 28 3b 37 6b db bd 5c 74 0a bd
       -0.07598124 0.0025699388 -0.10713809 -0.033802375
000100 ef bd 47 bc 82 2c c2 bd d8 38 cf bd d3 2e eb bc
       -0.01219128 -0.094811454 -0.10118264 -0.028708851
000110 59 8a 32 be 08 52 2a bd 19 68 42 bc f8 77 3d bd
       -0.17435588 -0.041582137 -0.011865639 -0.04625699
000120 2f b4 39 bd 72 a4 09 be c5 77 c8 bb 28 81 9c bc
       -0.045337852 -0.13441637 -0.0061177933 -0.019104555
000130 e3 0d 20 be bc 81 7d 3d 97 1e bf 3d 7a fe 27 3e
       -0.15630297 0.061891302 0.093320064 0.16405669
000140 5c 94 21 3e 46 e9 0a 3e 40 a8 c2 bd c4 de bf bd
       0.15779251 0.13565549 -0.095047474 -0.09368661
000150 6d c2 03 3d 38 50 cc 3d db 23 56 3d 4e 6d 6c 3d
       0.03216784 0.09976238 0.05228029 0.05772143
000160 1d f0 74 3a 07 81 a6 3c ac 39 8b bd 10 7f 61 bc
       0.0009343641 0.020325197 -0.067981094 -0.013763204
000170 7c 93 19 3d 9c 31 0f 3d 46 f0 71 3d 9a 3c 0a bd
       0.037494168 0.03495942 0.059067033 -0.0337492
000180 e7 10 bb bd aa 9b 39 be 62 e6 76 bc 87 ff 36 bb
       -0.09134083 -0.18125787 -0.015069576 -0.0027923302
000190 af 32 0e 3d 13 1a aa bc 1f 11 df bc 37 26 18 3d
       0.034716304 -0.020764386 -0.027229844 0.03714582
0001a0 96 98 2e bd bf d6 b0 bd a4 92 26 3c 30 22 01 be
       -0.042625986 -0.086347096 0.010166798 -0.12610698
0001b0 16 09 08 bd 31 02 00 3e 71 ac 37 3c 3c 0b 99 bc
       -0.03321179 0.12500836 0.011210547 -0.018682115
0001c0 91 8e d7 bd c3 48 e7 3c 40 19 a7 3d 61 ce 00 3a
       -0.10525239 0.028232938 0.08159113 0.00049135654
0001d0 a7 62 ba 3c 13 30 42 bd 7c c8 45 bc 4d 59 13 bd
       0.02275212 -0.04740913 -0.012071725 -0.035973836
0001e0 6c 11 ce bd f2 d1 90 3d fd bc 9b 3d 2e d8 bf 3d
       -0.10061917 0.07071294 0.07604406 0.09367405
0001f0 f5 83 87 3c cb 62 37 3d 8f ce bc 3d 9b fb 09 3e
       0.016542414 0.04477195 0.092190854 0.13474886
000200 e2 99 cf 3d 8f 37 bf 3d 0b a9 a5 bd 0f 90 22 be
       0.10136773 0.09336769 -0.08088883 -0.15875266
000210 ca b0 64 be 56 88 8f bd c8 79 0d bc 9a da cc bd
       -0.22333065 -0.07008426 -0.008634992 -0.100026324
000220 79 67 11 be 50 1c 3e be 0e 19 69 bd c2 bb 07 bd
       -0.14199628 -0.18565488 -0.05690866 -0.033138044
000230 1e 0a 74 bc 33 11 03 be 2a 7a de bc c9 30 7f 3c
       -0.01489499 -0.1279953 -0.027157862 0.015575596
000240 30 34 95 3d b6 0b 46 bd 3c 73 98 3c 5f 1c 1b bd
       0.072853446 -0.048351012 0.018609636 -0.037868854
000250 8a e5 2e bc 66 b3 4e 3d 20 99 3a bd d0 ca 49 3d
       -0.010674844 0.050464056 -0.045556188 0.049265683
000260 83 4f e3 3d 83 05 f9 3d 03 81 c7 3d 54 38 91 bd
       0.1109915 0.121592544 0.09741404 -0.07090822
000270 ac 48 f8 3d 27 d1 a3 3d bc 5b 91 3d 54 50 d6 bd
       0.12123236 0.07998877 0.07097575 -0.1046454
000280 2c f0 b8 3d a5 22 a2 3d 55 32 31 3c 4f 46 bb bd
       0.09030184 0.07916764 0.010815223 -0.0914427
000290 52 c1 86 3c af c3 13 3e b3 2f 1a bd e5 8c 0a be
       0.016449604 0.14430116 -0.037643146 -0.1353031
0002a0 ad a4 42 be e3 07 f1 bc ed 3f 82 3d f9 4f db bd
       -0.19008131 -0.029422706 0.06359849 -0.10708613
0002b0 62 df f9 bd c1 f9 a1 bd 95 75 ab bc cc aa bf bd
       -0.1220081 -0.07908965 -0.02093009 -0.09358749
0002c0 ee 4c 1d be 05 db 9d bc 3b 8c c0 3d a3 89 00 3e
       -0.15361378 -0.019269476 0.09401747 0.12552504
0002d0 2b 28 2b be 44 b3 cc bd 66 54 07 3d b3 0e 94 3b
       -0.16714542 -0.0999513 0.033039473 0.004518354
0002e0 68 c5 2d 3d f5 3b 53 be 91 b8 e6 bc e2 72 81 3d
       0.04242459 -0.2062834 -0.02816418 0.0632074
0002f0 ef 1a e2 3d 1c ea 9d bc 78 df 86 bc 7d 8b bf 3d
       0.110402934 -0.019276671 -0.01646398 0.09352777
000300 68 be 86 3d df 67 0e bd 03 1e 79 3c 1f b2 09 3d
       0.06579286 -0.034767028 0.015204909 0.033617135
000310 5a 8f 96 bd df 15 1b 3c 33 b9 e7 bd 5f f0 cc bd
       -0.07351561 0.009465664 -0.11314621 -0.10006785
000320 9e aa b9 bd b3 54 a3 bb d7 f5 0d 3d 23 db 34 bd
       -0.09065746 -0.004984462 0.03465828 -0.044154298
000330 40 3f 6e bd 1e 2d d4 ba 3b bf 09 be f9 cb 85 bd
       -0.05816579 -0.0016187762 -0.13451855 -0.06533045
000340 ad 9e 72 be 55 44 42 bd 26 4c d1 bd 73 1f 44 be
       -0.23693343 -0.047428448 -0.10219602 -0.19152622
000350 7a 8f 78 be 5e 70 0c be 45 a7 0c 3e 24 a9 2d bd
       -0.24273482 -0.1371474 0.13735683 -0.042397633
000360 f4 4d 01 be 42 c4 24 be a4 5e 76 3b 7c 47 2b 3e
       -0.12627393 -0.16090491 0.0037593031 0.16726488
000370 dd e5 89 bd d0 f6 0a bd 78 70 a9 3d 86 ef f3 3d
       -0.06733296 -0.033926785 0.08273405 0.1191092
000380 6a c6 1c 3e 95 41 63 ba e4 4f 2f 3e 5c fd 44 3d
       0.15310064 -0.0008669135 0.1712032 0.048093185
000390 e3 be 1a 3d d9 f9 0d bd 04 ab 75 3d 13 ee 05 bb
       0.0377797 -0.0346621 0.059977546 -0.0020436093
0003a0 68 2d 3a bc fa 5d 7d 3c 52 a8 a3 bb 38 a9 49 bd
       -0.011363365 0.0154643 -0.0049944306 -0.049233645
0003b0 16 33 4b be 88 40 61 be 39 62 c4 bc df 94 ce bc
       -0.19843706 -0.21997273 -0.023972617 -0.025217472
0003c0 e5 70 cd bd e1 ec 7e be b9 25 da bd e6 ed 55 3d
       -0.100312985 -0.2489505 -0.10651726 0.05222883
0003d0 0f d6 86 bc 75 d4 63 be d5 ad c9 bd a4 96 3e bd
       -0.016459493 -0.22249015 -0.09847609 -0.04653038
0003e0 7d fb 0e bd 77 75 af bd 3e a1 a4 bd 08 dd 30 bd
       -0.034907807 -0.085673265 -0.08038567 -0.04317954
0003f0 55 75 f6 bd d9 7c 2c ba 99 97 06 3e dd 7a 16 bd
       -0.12034098 -0.0006579883 0.13143767 -0.036738265

bias f4 [16]
000000 ea 7b ed 3c a3 38 7e bd c3 83 0a 3d d1 87 84 bd
       0.02898975 -0.06206573 0.033817064 -0.064712174
000010 60 92 ec 3c d4 fd c7 bc d3 7d e5 bd fa 2e 6c bd
       0.02887839 -0.024413027 -0.1120564 -0.057661988
000020 94 9b 1d 3e 0f 0a 85 bd e0 1e 83 bd 4f e7 01 bd
       0.1539138 -0.06496059 -0.06402373 -0.031714734
000030 ab 90 af bd 28 89 69 bd ce 44 02 3d c0 f3 50 bd
       -0.08572515 -0.057015568 0.0318039 -0.051013708

weight f4 [120, 400]
000000 64 39 32 bd bd 4e 2d bd c4 78 0c be f6 5b 7e bd
       -0.043511763 -0.04231142 -0.13717943 -0.06209942
000010 e9 ff 94 3b fe 4c 85 3d b6 08 30 3d 91 7f 67 bd
       0.0045471084 0.06508826 0.042977057 -0.05651814
000020 93 03 fb bb 71 7e fc bc a3 ad 84 3d 7a 63 e5 3d
       -0.007660338 -0.03082201 0.06478431 0.11200614
000030 9e ac a6 3d 83 88 73 bd c9 f5 60 3c d8 38 d2 3c
       0.08138393 -0.05945636 0.013730475 0.02566187
000040 03 6c 48 3d 66 3b 11 bc e2 da 91 bc 0a f2 09 bd
       0.048931133 -0.008864259 -0.017804567 -0.033678092
000050 9a d9 cd 3c 7f 5d 50 bd d5 b5 48 bd 85 1b 18 3d
       0.025128175 -0.050870415 -0.049001534 0.03713562
000060 eb 28 c0 3c 26 ca 52 ba 52 e0 55 3d 87 d1 41 bc
       0.023457011 -0.0008040987 0.05221588 -0.01182974
000070 bb 64 05 3e 8b 3d 26 3e 57 4c e5 bd 3c b1 aa bc
       0.13026707 0.16234414 -0.11196201 -0.020836465
000080 02 23 a0 3d 7e 0d f7 bc 69 35 de bc a9 4d ac 3d
       0.07819177 -0.0301578 -0.027125077 0.0841325
000090 28 d5 eb bc c9 22 e5 bd 00 e1 a8 3a 90 6b 25 bd
       -0.028788164 -0.11188275 0.0012884438 -0.040385783
0000a0 4d 9d 86 3a 5d 20 05 3d 28 cf 01 bd 3c a9 55 bd
       0.0010270268 0.032501567 -0.0316917 -0.052163348
0000b0 4f e9 8b bd d8 04 ff 3c 20 0b ad 3d bc 19 05 be
       -0.068316095 0.03113024 0.084493876 -0.12998098
0000c0 b5 e2 24 bd 37 4b 0c be e9 f1 87 3d f1 44 39 bd
       -0.040255267 -0.13700567 0.066379376 -0.045231763
0000d0 c5 34 c8 bc ee c9 1c bd e3 df 1c bc 08 63 b4 bc
       -0.024439225 -0.038278513 -0.009574863 -0.022019878
0000e0 84 f8 bb 3d 91 18 f5 3c 4e d1 a2 3d 11 4b 2c 3d
       0.0917826 0.02991894 0.07950078 0.042063776
0000f0 6a 04 03 be 5a 8d 3c 3d 3e 93 5e 3b 72 fb f9 ba
       -0.12794653 0.04603324 0.0033962275 -0.0019072129
000100 84 75 19 3d 5c a8 05 ba 2d 45 8e bc ea bd 75 3b
       0.037465587 -0.0005098635 -0.01736697 0.003749723
000110 40 42 03 3d a1 a4 20 bd 31 41 dd 3c cc 99 8f 3c
       0.032045603 -0.039219502 0.027008625 0.01752939
000120 37 3e 35 bd 22 05 e0 bd ac 86 76 bd e6 81 45 bc
       -0.044248786 -0.10938479 -0.060187027 -0.012054896
000130 ec c2 3c 3d 26 1a 71 3d 91 ac 2e bc 1a 6f 0d bd
       0.04608433 0.058862828 -0.01066126 -0.034529783
000140 27 56 5b bc b3 d7 41 bd 2b f6 ed 3c 01 7c ec bc
       -0.01338724 -0.047324847 0.029048046 -0.028867723
000150 7b 93 a9 bc 36 45 07 be 28 d7 57 bd c4 b0 50 3d
       -0.020700207 -0.13209996 -0.052695423 0.050949827
000160 da 66 52 3c 62 e0 8e 3c 27 44 a0 3d 2a 9e 2d 3d
       0.012841905 0.017440978 0.07825499 0.042387165
000170 39 1c f6 3d 44 16 fa 3c 82 88 2f 3c b8 e3 ab bd
       0.12017102 0.030528195 0.010713698 -0.08393043
000180 d2 2d 95 3d 38 a2 31 3d e7 94 ae bd 7e 42 0c 3d
       0.0728413 0.043367594 -0.085244946 0.0342431
000190 0c d8 28 3d 26 41 7f bd 5d bc 1e be 13 81 83 bd
       0.041221663 -0.06231799 -0.15501542 -0.06421103
0001a0 5f 39 85 bb a4 a1 3c 3d e6 86 3b 3d b5 60 4f bd
       -0.004065677 0.04605259 0.045782946 -0.050629336
0001b0 32 7b c3 bd 4d de 5e 3d 91 8c 33 bd 80 e5 39 3d
       -0.09544982 0.05441122 -0.043835226 0.045384884
0001c0 da 3b 9a 3d 07 12 91 bc 05 b5 a2 3b c1 e3 3d bc
       0.07530947 -0.017708791 0.004965427 -0.011589945
0001d0 2c 01 c0 bb f4 d8 4a bd 13 19 fe bb b4 c6 68 b9
       -0.0058595147 -0.04952331 -0.007754454 -0.00022199267
0001e0 23 43 87 bc 81 c8 c2 3b 23 38 30 bc e8 8a 86 bd
       -0.016511505 0.005944312 -0.010755572 -0.06569463
0001f0 0a db ac 3c 0f cb a6 3d db 75 62 3d fb f6 03 3e
       0.02110054 0.08144199 0.055288177 0.12887184
000200 82 e3 0d 3e 12 44 97 3d 7e 76 41 3c 1a c3 78 bd
       0.13856319 0.0738603 0.011808036 -0.06073294
000210 c1 c8 14 3e 52 3f ac 3d a9 72 7e 3d 5b e7 90 bd
       0.14529707 0.08410515 0.062121067 -0.070753776
000220 55 4e 25 3d ac 81 95 bd 25 16 79 3c de 40 d4 3d
       0.040357906 -0.073001236 0.015203034 0.10363935
000230 ea c9 1f bd 65 57 77 3b 2d 2f d3 bb 47 a2 0a bd
       -0.03901092 0.00377413 -0.006444833 -0.033846166
000240 1c 6b b6 bb 1f 15 d8 bd fb 6c 24 bd 38 e5 d4 3d
       -0.0055669677 -0.105509035 -0.040142994 0.103952825
000250 c5 4c e6 3d 6b 04 ef 3d db bf 9c bb 31 8e 0f be
       0.112451114 0.116707645 -0.004783613 -0.14019085
000260 54 39 b7 bd f8 04 bd bd 96 47 3f 3d df 5d c5 bd
       -0.08946481 -0.09229463 0.04669913 -0.09637045
000270 e8 1a 93 bd 9d b6 6c bd 17 e8 4d 3a 3d 4a 5b bd
       -0.07182866 -0.05779134 0.00078547135 -0.053537596
000280 df f6 a9 3d c8 52 0d 3d 64 a0 fc bb 4f 0d 38 bd
       0.0829904 0.034502774 -0.0077095497 -0.044934567
000290 9c b7 87 3d a2 67 89 bc 94 1d 0e 3d 6e 49 2b bd
       0.066268176 -0.016773049 0.034696177 -0.041818075
0002a0 2f a3 25 3c e3 0f a2 bd 1c 68 37 3d e6 21 62 bd
       0.010109707 -0.079131864 0.04477702 -0.05520811
0002b0 15 72 9f bd 46 78 d2 bd 2d 09 d5 bd 7e c7 b9 3d
       -0.07785431 -0.102768466 -0.10402141 0.09071253
0002c0 67 8f 2e bb 9b 63 75 bd da 50 d8 bc 50 33 77 3c
       -0.0026635767 -0.059909444 -0.02640574 0.015087917
0002d0 ed 9c 1c 3d 4f c9 a2 3c c0 bf 83 bc 94 68 3e 3d
       0.038235594 0.019871382 -0.016082644 0.046486452
0002e0 b8 60 26 3d fe 12 85 bd ca 34 65 3d 61 3a 37 3d
       0.040619582 -0.06497763 0.055958547 0.04473341
0002f0 26 36 a9 bd cb 32 8c bc 4a b2 1a bb f4 d2 ad bd
       -0.08262281 -0.017114064 -0.0023604804 -0.08487502
000300 c0 3d bf bc 24 df 12 bc 3d ef 95 bd cf de c1 bd
       -0.023344874 -0.008964334 -0.07321022 -0.094663255
000310 90 31 84 bd 03 b3 2f 3c 0e 33 25 bd a2 a9 54 3d
       -0.06454766 0.010723832 -0.040331893 0.051919587
000320 e6 53 12 3e 0b cd a5 3d ec c2 8c bc 08 e3 8d bd
       0.14289817 0.080957495 -0.01718279 -0.069280684
000330 2d 8d 95 3c e4 6f c6 3d 3e d9 4d 3e db 2c 87 3d
       0.018255794 0.0968931 0.20102403 0.066003524
000340 ad 64 48 bd 10 03 da 3d e9 18 19 bd ad 1d 1c 3c
       -0.048924137 0.106451154 -0.03737727 0.00952856
000350 7a c9 a6 3d f7 42 d6 bc d9 d3 85 3d 54 32 bf bd
       0.08143897 -0.026154978 0.06534547 -0.09335771
000360 53 b8 fc bd 37 dd 60 bd 62 d6 ea bd 8b 3f 74 bd
       -0.123398446 -0.054898467 -0.114666715 -0.05963091
000370 b2 96 94 3d 5c ec df bd 0e 8e c0 bc 15 6d 97 bc
       0.07255305 -0.10933754 -0.023505237 -0.018484632
000380 09 62 c4 3d f6 43 d2 bc 58 08 c7 3d 33 0c 48 3d
       0.09589011 -0.025667172 0.09718388 0.04883976
000390 1c aa 8a bc ea 02 6e bd a1 fe a7 bd 84 e3 ca bc
       -0.016926818 -0.058108248 -0.082028635 -0.024766691
0003a0 b4 0e 68 3c 8b e8 1d 3c e3 9d 9d 3d a8 2d 06 3d
       0.014163662 0.009637962 0.0769613 0.032758385
0003b0 4f bd e2 bc ae c5 21 3c 88 22 0c 3d 6f 16 e4 3a
       -0.02767816 0.009873791 0.03421262 0.0017401705
0003c0 4a 1b 2f 3b 96 57 8f 3d 70 79 57 bc 78 bb 26 b9
       0.0026719146 0.069991276 -0.013151512 -0.00015900831
0003d0 21 91 3a 3d cb 7e 92 3c 8d 01 f9 3d 70 6d 93 3d
       0.045548562 0.017882725 0.12158499 0.07198608
0003e0 5e 4e 9e 3d 35 e5 aa 3c 40 2c ba bd 77 de b6 bd
       0.07729791 0.020861248 -0.09090471 -0.089291506
0003f0 d9 1a 4d bc 79 e5 96 3c e4 10 df 3b ee 53 b3 bd
       -0.012518608 0.018419968 0.0068074334 -0.08756243

bias f4 [120]
000000 33 ef 41 bd f4 17 39 bb bc 2b 16 bc fc 3b 04 be
       -0.04734726 -0.0028243037 -0.0091657005 -0.12913507
000010 c0 99 99 3c c3 7a 7d bd 8a e4 94 3c 1a 26 4d bd
       0.018750072 -0.061884653 0.018175382 -0.050085165
000020 f9 a9 07 3c fb 90 ab ba 1f 09 ff bc c6 20 b3 3c
       0.008280271 -0.0013089472 -0.031132279 0.021866214
000030 eb be d9 3c cb 75 da bd 89 53 1b bc 83 99 6e bd
       0.026580295 -0.106669985 -0.009480366 -0.05825187
000040 56 72 dd bd f2 f5 aa bc 3b 66 22 bd 8e eb 2c bd
       -0.108128235 -0.020869229 -0.039648276 -0.04221683
000050 9f 9d 12 bd 01 79 9b bc 98 aa bc bc 08 4a d6 39
       -0.03579485 -0.018978598 -0.023030564 0.00040872418
000060 e1 0d 61 3b f3 8c 6f bd 95 ce a5 bc 79 03 00 bd
       0.0034340548 -0.05848403 -0.020240108 -0.03125331
000070 50 d3 32 bd ba 53 ea bc db 59 97 bd 73 3c 41 3c
       -0.043658555 -0.028604377 -0.073901854 0.011794197
000080 4f 8c 9d 3c 70 0a ef 3b fb f8 82 bd 94 90 8e bd
       0.019231943 0.0072949454 -0.063951455 -0.0696117
000090 23 6c 85 bb 3f 47 19 3d a0 9b 88 3d 5d 04 00 be
       -0.004071729 0.03742146 0.06670308 -0.12501664
0000a0 01 46 b7 bd 5b 4b c4 bd e7 7a 7b bc ba da 63 bd
       -0.08948899 -0.095846854 -0.015349126 -0.055628516
0000b0 7e be fc 3b aa ed d0 3c 15 97 cb bc f4 a3 e0 3a
       0.007713138 0.025503952 -0.024852315 0.0017138706
0000c0 04 4f 39 bd 4a 24 a6 bd b3 77 af bc 85 39 82 3c
       -0.04524137 -0.0811239 -0.021419382 0.015896568
0000d0 34 2a 21 bd 22 d2 63 bd 1a 28 e5 bd 36 58 e3 bc
       -0.03934689 -0.05562032 -0.111892894 -0.027752023
0000e0 ee d0 2f bd fb 35 1f bd 07 b2 24 3b 61 a8 31 bd
       -0.04292386 -0.03886984 0.0025130527 -0.04337347
0000f0 ff af 99 3c b9 44 ce 3b 9a 5e 75 bb e0 ee 2f 3d
       0.01876068 0.0062948135 -0.003744042 0.04295242
000100 c8 5c d6 3c 7f 34 b0 bd c8 32 8d 3d 2a d2 54 bd
       0.026167288 -0.08603763 0.068944514 -0.05195824
000110 f4 44 01 3d af f6 ab bc d4 6b 96 bc 2d 19 20 3a
       0.0315599 -0.020991651 -0.018361963 0.0006107267
000120 8f 2f 1e bd cb e9 f8 38 9c 03 5a 3d 70 ba 2c bd
       -0.038619574 0.00011869109 0.0532261 -0.04216999
000130 80 f6 e6 3a 24 29 ca bb ab f3 fe 3c 18 26 0d 3d
       0.001762107 -0.006169455 0.03112205 0.034460157
000140 61 9b 07 bd db 11 d8 bc b5 e7 d2 3c 7b b6 c1 3c
       -0.033107165 -0.026375702 0.025745252 0.023646584
000150 5e 4e 4e 3d 46 c6 13 be 2a 8c 04 be ff 66 81 bd
       0.050367706 -0.14431104 -0.12944093 -0.06318473
000160 74 70 bd bd 3b 89 f6 3b 84 77 71 3d 66 11 11 bd
       -0.09249964 0.0075236834 0.05895187 -0.035416983
000170 1a f3 00 3c 18 54 87 3c c3 c1 ff bd 1c de 01 3c
       0.00787046 0.016519591 -0.12488129 0.00792649
000180 c5 fe f0 bd 1b f7 63 bd 8a a6 d2 bd 1d 8e 8b bc
       -0.117673434 -0.05565558 -0.10285671 -0.017035538
000190 1e 31 be bd 1c 94 b2 bc 9b a0 89 bd bc 36 dd 3b
       -0.09286712 -0.02179914 -0.06720086 0.0067509096
0001a0 04 ec 27 be 3c f0 dd ba cc 0e 29 bc 01 d4 aa ba
       -0.16398627 -0.0016932557 -0.010318469 -0.0013033153
0001b0 40 c7 d1 bd e4 fe 94 bd 0e 5c 02 3b f3 1b 18 bd
       -0.10243082 -0.07275179 0.0019891295 -0.03713603
0001c0 42 58 78 bd 4b cd d3 3c 28 0b b5 bc 2e 85 62 3d
       -0.060631044 0.025854727 -0.022100046 0.05530279
0001d0 0a e6 28 bd a8 cb 16 3d a1 23 31 3d 29 f2 c2 bd
       -0.041235007 0.036815315 0.04324687 -0.09518845

weight f4 [84, 120]
000000 dc d4 fa bd ea e7 0f be 24 72 30 3d ad be 30 3d
       -0.12247631 -0.14053312 0.043077603 0.043150593
000010 ba 78 b7 bc 41 a9 01 3e c4 19 a0 3c d7 63 24 bd
       -0.022396434 0.12662221 0.019543536 -0.040134277
000020 12 3b 98 3c 12 25 25 be 86 fd 95 bd f4 1a d1 bd
       0.018582854 -0.16127422 -0.073237464 -0.10210219
000030 52 ce 1b 3e 8f 37 51 bd 76 78 7e 3c 9b de 03 3d
       0.15215424 -0.051078375 0.01553165 0.032194715
000040 6c 8e 0f bc 60 bc 0d 3c 82 25 e8 bd d5 52 4e 3d
       -0.008761983 0.008650869 -0.11335279 0.050371964
000050 a8 f3 ec 3d 17 8f 58 3d bf 3d 91 bb e9 95 14 bd
       0.11569911 0.052870836 -0.0044324095 -0.036275778
000060 88 6e c2 3d d5 52 c2 bc e2 9b 36 be 31 bf 2c 3e
       0.094937384 -0.023721138 -0.17832902 0.16869809
000070 57 87 56 3e 87 83 a1 3d e2 ac e3 3d e7 1b c5 bd
       0.20950066 0.07886415 0.11116959 -0.096244626
000080 58 9d 69 3d 9f 80 fb bd 7a d4 9e 3c 4b 05 9b 3d
       0.05703482 -0.12280392 0.019388426 0.07569369
000090 1e 0e c1 bd 8d 8c 43 3c d5 86 c4 3c 53 ec 61 bd
       -0.09426521 0.011935365 0.023990074 -0.055157017
0000a0 00 99 28 bd fb 5e 3b 3d 50 25 0b bc b7 25 1c bd
       -0.041161537 0.045744877 -0.008492783 -0.038121905
0000b0 8b ee bf bd bd e8 b8 3d 4f 0d 0d 3d d0 72 cb ba
       -0.0937167 0.09028766 0.03443652 -0.0015521888
0000c0 65 00 16 3d 13 a3 ac 3c e7 c3 50 3d 33 bb d1 3d
       0.03662147 0.021073854 0.050968077 0.102407835
0000d0 d5 65 de 3d 14 60 1d 3e 77 e0 9f 3d b0 1a 59 3d
       0.10859267 0.15368682 0.07806485 0.053003967
0000e0 76 33 94 3d 59 4b 8d 3d 1a 03 cb bd bd 9f 1f 3d
       0.07236378 0.06899137 -0.09912701 0.038970698
0000f0 18 5b 0b 3e 67 28 51 3d aa 9d 90 bd 76 40 81 bd
       0.13608968 0.05106392 -0.07061322 -0.06311123
000100 af 47 d3 3d 97 9f 18 be 9e cc 37 3e 63 03 e3 3c
       0.10316407 -0.14904629 0.17949149 0.027711576
000110 cd 6a ce bd 49 ca f3 bd 55 40 8c bd 63 21 d9 3d
       -0.100789644 -0.11903817 -0.06848208 0.10602071
000120 d1 8e 94 3c 06 0d e3 3d 23 eb e5 3c 23 84 9a bd
       0.018134506 0.110864684 0.028066223 -0.07544734
000130 e3 5a 21 bd 8d 44 03 3d 05 d1 8f bd 18 a9 b8 3d
       -0.039393317 0.032047797 -0.07022289 0.09016627
000140 bc 7e 9b bd 59 cd 00 be 8f 8c ed 3c 74 dc 72 bc
       -0.07592532 -0.12578334 0.028997688 -0.014823068
000150 8d 7d 9d bd 1b db 95 3d 3b 16 40 bd a9 c4 93 3d
       -0.076899625 0.07317182 -0.0468962 0.07215244
000160 cf 14 2f bd 0f 52 52 3d c4 93 4c 3e 1f ef 01 bd
       -0.042744454 0.05134779 0.19978243 -0.031722184
000170 8f 18 98 3c 68 51 c9 bb e4 df 4d be 7b 72 80 bd
       0.018566398 -0.0061437376 -0.20104939 -0.062718354
000180 60 c1 d1 bd 3f dd 29 be 1f 4b ed 3d ec 3d 2f be
       -0.102419615 -0.16588305 0.11586594 -0.17113465
000190 76 1e a5 3d c2 f4 47 3a c0 db b7 3d d7 1c 09 3d
       0.080624506 0.00076277193 0.08977461 0.03347477
0001a0 a3 bb 26 bd 99 e1 3a ba a2 a7 52 3e 8a 03 f5 3d
       -0.040706288 -0.00071289536 0.2057176 0.11963566
0001b0 74 c6 8f bd 77 4d 8e bc 62 c0 a3 3d 00 86 b4 3d
       -0.07020274 -0.017370922 0.079956785 0.08814621
0001c0 5f bd 36 3d 65 65 41 bd 76 0f 55 3b b3 c6 07 3e
       0.044614192 -0.047215838 0.0032510436 0.13259391
0001d0 1d b4 b1 3d 1f d2 55 3d b0 45 a9 3c 24 d7 ff bd
       0.08676932 0.05220234 0.020663112 -0.12492207
0001e0 df b9 b5 3d 75 2f 90 3d bf 44 50 3d 8b fd 03 3b
       0.08873343 0.07040302 0.05084681 0.0020140137
0001f0 16 5b 38 3e fb 78 f8 3d d4 27 ba 3d 06 a7 43 3d
       0.18003497 0.1213245 0.09089628 0.047766708
000200 b4 1e 92 3c c7 0f 6b 3d 37 e2 d3 bc b0 20 cb bd
       0.017836906 0.057388093 -0.025864704 -0.09918344
000210 c3 fc ba 3c 50 36 c5 bd fa 14 b4 3c 0b cc 33 be
       0.022825604 -0.096295 0.021982659 -0.17558305
000220 9b a8 ba 3c 15 b5 80 bd c5 c5 38 3e 81 7f 75 bd
       0.022785475 -0.06284539 0.18044193 -0.05993605
000230 74 b8 a2 bb dd 3e 94 3d 6f 74 a4 3d 56 d3 69 3e
       -0.004965836 0.07238553 0.080300204 0.22834525
000240 d2 02 3e 3d d8 d0 f3 ba 2b ed a1 bd df fb 72 3c
       0.04638941 -0.0018601669 -0.07906564 0.014830559
000250 bd d0 c2 3c 56 4b 0a be 12 44 ff bb 7a 87 48 3d
       0.023781175 -0.13505301 -0.007790097 0.048957326
000260 21 bf 3e 3e cf 5f b2 3d 47 b3 ac bd 9f 8c c2 bd
       0.18627597 0.0870968 -0.08432632 -0.094994776
000270 e9 e2 00 be f4 2b e6 bd 2b 31 ba 3d e6 e6 1c bd
       -0.1258656 -0.11238852 0.09091409 -0.03830614
000280 e0 2b 48 be 32 25 04 3d eb 8f df bd 7f 32 ce 3b
       -0.19547987 0.032262035 -0.10916122 0.0062926407
000290 f9 3a 03 be 94 68 77 3d 43 e0 a7 3d 00 74 1d be
       -0.12815465 0.060402468 0.081970714 -0.15376282
0002a0 65 e7 31 3c ac 7e 92 3d 21 a3 fe 3c f6 86 c8 3d
       0.010858391 0.07153067 0.031083645 0.09791367
0002b0 a0 a1 56 bd 6d e7 0f 3d f8 d3 d0 bc 5d 79 08 be
       -0.05240023 0.035132814 -0.0254917 -0.13327546
0002c0 e1 38 ee bd 93 54 3a 3c f3 7c b2 bc 6c bb ad 3c
       -0.116319425 0.011372703 -0.021788096 0.021207534
0002d0 b3 64 c6 3d 45 72 fb 3a 66 47 ac bb 3e a8 bc 3c
       0.096871756 0.0019183835 -0.005257535 0.023029443
0002e0 60 48 e3 3d 3c a0 e3 bd d9 04 99 bd 9c 31 84 bd
       0.11097789 -0.11114547 -0.07471628 -0.06454775
0002f0 ac 80 70 3d ba f4 0e bd 1a 1f 28 3c ab f8 73 bd
       0.05871646 -0.03490136 0.010261321 -0.05956332
000300 9e a3 c4 bd db 5b d7 bc 55 9d ba 3d 01 94 61 3d
       -0.0960152 -0.026288917 0.0911204 0.05507279
000310 ea 96 c7 3d 11 f1 f8 3c ec b8 21 3e 1e 20 4f bd
       0.097455814 0.030388387 0.15793198 -0.05056774
000320 e4 4e f4 bd 5b 3b 96 bd 75 a9 c8 3d a3 91 06 bc
       -0.1192911 -0.0733554 0.09797946 -0.008213433
000330 d4 fe 96 bd 26 97 b7 bd e0 39 58 bd 3c 63 9b bd
       -0.07372823 -0.08964376 -0.05278957 -0.07587287
000340 1e fe fe 3c 82 71 c9 bd 96 fe d9 3d 19 81 73 bd
       0.031127032 -0.09836103 0.106442615 -0.05944929
000350 e0 35 87 3d 53 a6 66 bd 2f 6e 71 be 59 ee 04 b9
       0.06602073 -0.056310963 -0.23577188 -0.00012677292
000360 0e ad 1d be 72 8e e5 bc 1a 56 39 3d a1 63 bd 3d
       -0.15398046 -0.028022025 0.04524813 0.09247518
000370 e2 90 24 bc 02 c2 47 bc eb ad 93 bc d6 a5 ff bd
       -0.010044308 -0.012192251 -0.018027266 -0.124828026
000380 79 df 43 bd a1 8b 52 be f4 1a e7 bd 58 8d 33 3d
       -0.047820542 -0.20561077 -0.11284438 0.043835968
000390 47 f8 71 bd 2d 24 ba bd 5d b8 8d bc 94 a2 03 3d
       -0.059074666 -0.09088931 -0.017299825 0.03213747
0003a0 3d 6f ed 3c 73 98 d1 3d 62 0f 91 bc c7 e6 0e 3d
       0.028983707 0.102341555 -0.01770753 0.034888055
0003b0 cc ed 01 3e bf 05 2e bb 8d 36 c1 3d 0f e0 3c bc
       0.12688369 -0.0026553718 0.09434233 -0.011528029
0003c0 57 44 10 be 68 a8 b7 bd 55 7a b3 3d 6c aa ba 3c
       -0.1408857 -0.08967668 0.08763567 0.022786342
0003d0 1c 5c b6 bc 0d f3 0d bd ef 88 cc 3c a6 58 e4 bc
       -0.022260718 -0.03465562 0.024967639 -0.027874302
0003e0 dd a8 c3 3d 3d 93 51 3b a7 db ae 3c f4 b7 87 bc
       0.095536925 0.003197863 0.021344973 -0.016567208
0003f0 e6 3f 6b 3d 26 98 7d bc 5e 4b 31 bd d4 42 27 3e
       0.057433985 -0.01547817 -0.043284766 0.16334087

bias f4 [84]
000000 83 f1 e5 3d 3e 2c 86 3d 1d 87 a3 3d cb 98 2b 3d
       0.11227705 0.06551407 0.07984755 0.04189376
000010 6f a6 ee 3d f3 c3 db 3d 2a 29 91 bc 9e 8f 99 bd
       0.116528384 0.10730734 -0.017719824 -0.07498096
000020 34 22 49 bd 84 9a 33 3d 89 fe a4 3c 86 f0 67 3d
       -0.049104884 0.04384853 0.020140903 0.056625865
000030 c3 e4 71 3d ad ac 35 3d f3 fa 81 bd 5c bc 0a 3d
       0.059056055 0.04435413 -0.06346693 0.03387104
000040 1c ab 98 3d 3a 21 be bc 78 53 95 3d 0e 80 d5 bd
       0.074545115 -0.023209203 0.07291311 -0.10424815
000050 aa 60 6c ba ad 34 87 3d f3 e0 c1 bd 81 59 4e bc
       -0.00090170896 0.06601844 -0.09466734 -0.012594582
000060 8e 29 a3 bd 0a e7 ba bd 77 8f 07 3e ba 65 5b 3b
       -0.0796691 -0.091260985 0.13238321 0.0033477382
000070 a4 33 4e bc 5b 0c 86 3c ce 80 12 bc 45 86 b6 bd
       -0.012585554 0.016363313 -0.008941842 -0.08912329
000080 c2 88 58 39 43 24 d1 ba 43 e5 db bd 6d b7 c8 3c
       0.00020650311 -0.0015956241 -0.107370876 0.024501527
000090 18 8e 84 bd 22 4b 20 be 98 d3 8b bc a7 0c fd bb
       -0.06472415 -0.15653661 -0.01706867 -0.0077224555
0000a0 17 3f 2b 3e 9c 1f 41 3d 49 f5 29 3d 8c 42 69 3d
       0.16723286 0.047149286 0.041493688 0.05694823
0000b0 6a 35 8e bd f9 59 36 3c 72 3e 07 be 3a e4 0c 3d
       -0.06943782 0.01112985 -0.13207415 0.03439734
0000c0 94 73 c8 bc 95 83 66 3b 7a cc ca bd ab c1 51 bd
       -0.024469174 0.0035173644 -0.09902282 -0.051210087
0000d0 55 15 46 ba a5 47 a1 bc c3 92 c9 3d 24 16 8d bc
       -0.00075562793 -0.019687483 0.09842446 -0.017222472
0000e0 d7 e2 21 3d 10 8a da bd 3d 1e 1c 3d 88 69 37 3d
       0.039522972 -0.106708646 0.038114775 0.044778377
0000f0 b5 b3 b9 3d 99 f6 04 3e 4e 05 5d 3d 4a 51 4f bd
       0.090674795 0.12984695 0.053960137 -0.050614633
000100 9e 0d c0 bd ae de 83 3d 68 64 e6 bc c4 20 24 be
       -0.09377597 0.06438957 -0.02812405 -0.16028124
000110 95 ad ef bd 57 8b 66 bd ce b7 e6 3d 21 5a 69 3c
       -0.1170303 -0.05628523 0.11265527 0.01424268
000120 7f 8a a7 3c 2f d9 05 3d 55 67 78 bc 83 55 1a bd
       0.020451782 0.032677826 -0.015161355 -0.037679207
000130 3f 59 e5 3c b1 7d ec 3b 59 d7 e7 3d ef b6 24 3d
       0.027996657 0.007217132 0.11320371 0.04021352
000140 c2 e0 9d 3d a5 59 19 3d f5 a8 e5 3b b7 a7 73 3d
       0.07708885 0.037439007 0.0070086666 0.059486117

weight f4 [10, 84]
000000 e4 19 e4 bd 0f 92 52 3d f6 13 06 be 1d cb 0d 3e
       -0.11137751 0.051408824 -0.13093552 0.13847013
000010 76 7b 95 3d 3f 1d 03 bd c0 93 df bd 26 e6 ad bc
       0.07298939 -0.032010313 -0.10916853 -0.021227907
000020 c2 81 27 be bf 50 fd bc bb dc da bd 2f aa 56 be
       -0.16358092 -0.030922292 -0.10686632 -0.20963357
000030 c0 34 30 be 9a b8 ac bc 8e 6f 81 bc d1 5d 13 3e
       -0.17207623 -0.021084119 -0.015800264 0.14391257
000040 f0 54 ca 3d 62 d9 ba bb 34 09 be 3d 6e 14 41 be
       0.09879482 -0.0057021836 0.09279099 -0.1885545
000050 f9 41 0d be 2c b9 29 be 17 4d 08 be 9e c7 f7 3d
       -0.13794698 -0.16574544 -0.13310657 0.12098621
000060 33 57 67 bc b5 88 34 be 8a bc e4 bd f3 51 0a 3e
       -0.014119911 -0.17630275 -0.111687735 0.13507824
000070 1c 25 e9 3c ba a2 18 be 86 a3 09 3d 36 b9 03 be
       0.028460078 -0.14905825 0.033603214 -0.12863621
000080 40 a2 66 bd 16 06 15 be 24 1f 53 3d 3f 6f 7b 3c
       -0.056307077 -0.14553103 0.05154337 0.015346347
000090 61 af 86 3d f8 2e 5d bd 98 17 29 3d 8c 04 15 be
       0.065764196 -0.05399987 0.041282266 -0.14552516
0000a0 be a1 69 be 1c bd db bc 0f d3 0a 3e 4e 9a 97 3d
       -0.22815606 -0.026823573 0.13557075 0.07402478
0000b0 d0 d5 a2 bd ba 2d 88 bd d1 90 d0 bc 15 43 73 bb
       -0.07950938 -0.06649347 -0.025459679 -0.0037118841
0000c0 0b e3 33 bd 6c 97 94 3d 90 0e c8 bc 2b 44 8e 3c
       -0.043917697 0.07255444 -0.024421006 0.01736649
0000d0 97 f9 58 bd 25 40 bf 3d d2 3f b2 3d 1a b0 3c be
       -0.052972402 0.093384065 0.08703579 -0.18426552
0000e0 42 16 be bd 86 be 17 3d e7 e2 29 3d a2 d9 05 3e
       -0.09281589 0.03704693 0.041476157 0.13071302
0000f0 67 27 bc bd 01 1b 37 be d4 11 93 bd 85 42 f5 bc
       -0.09187203 -0.17881395 -0.07181135 -0.029938946
000100 12 31 16 3e 6d 13 c5 bc 3d 07 8d bd 45 6b 02 3e
       0.14667156 -0.024057114 -0.06886146 0.12736233
000110 16 ff dd bc dc 80 73 be 24 6c 5e bd 9c 5f c7 3d
       -0.027099174 -0.23779625 -0.05430235 0.09735033
000120 77 20 43 3d b9 7e 8f 3d f4 c9 e6 bd 38 0e 40 3e
       0.047638383 0.07006592 -0.11268988 0.18755424
000130 90 f9 96 bd 08 14 3b 3c 70 6c 0c bd 9f 7f 54 bd
       -0.07371819 0.01141835 -0.0342831 -0.05187952
000140 57 e0 0b 3d c9 50 1e bd 13 6d e9 3d c4 30 dc 3b
       0.034149494 -0.03865126 0.113977574 0.0067196805
000150 f1 5b b3 bd 7f 92 b6 3c 7f 6f 87 bd c3 ff ce bd
       -0.08757771 0.022286652 -0.06613063 -0.101073764
000160 f4 60 1e be 9a 79 12 be 68 ea 7d be 8c a4 af 3b
       -0.15466672 -0.143042 -0.2479645 0.0053601917
000170 48 06 37 3d 70 0a ea 3d 33 20 76 3d 7d ff b8 3c
       0.044683725 0.11427772 0.0600893 0.022582764
000180 5e 62 26 be 1c 6f 9d bd d8 33 0b 3d 3d db 3c be
       -0.16248462 -0.07687208 0.03398499 -0.18443008
000190 97 c9 f1 bd 37 44 9c 3c 9f 2d 0e 3e 7c d3 d2 3c
       -0.11806028 0.019075496 0.1388459 0.02573561
0001a0 e3 58 0f be 92 91 81 3d 9a 7d 3e be fb 5b 9d bd
       -0.13998751 0.063265935 -0.186026 -0.076835595
0001b0 11 3d 7e 3d 81 00 48 be a3 dd 1d 3c fc 52 38 39
       0.062069956 -0.19531442 0.009635362 0.00017578522
0001c0 c4 96 7e be cd c2 12 3e 7a 0f 2f 3d 50 f8 e6 3d
       -0.248622 0.14332123 0.04273937 0.112778306
0001d0 6e 9b fd 3d ba bb 40 3c 5a 0d 29 3e bb 7c 56 be
       0.123831615 0.0117635075 0.16509 -0.20946018
0001e0 3d 23 97 be 0b 39 96 be e9 1f 17 be 62 5d b2 3d
       -0.29519072 -0.29340395 -0.14758267 0.087092176
0001f0 0d 8c b1 3c c1 d9 76 3d da 88 6f be 46 59 1b be
       0.021673227 0.06026626 -0.23392048 -0.15170774
000200 ed 72 ec bc 38 c5 62 3b 7b 2e 8c bd 3e fb 44 3e
       -0.028863395 0.0034602415 -0.06844803 0.19236466
000210 24 d0 71 bd 23 51 de 3d 4d 4c a5 3d 75 e0 a8 be
       -0.05903639 0.10855319 0.08071194 -0.32983747
000220 a1 f7 49 be 7c 55 3f bd 7e 5b 46 be d4 f2 d6 bd
       -0.19723369 -0.046712384 -0.19370839 -0.104955345
000230 ad 4a 8a bd 12 ee 10 bd 33 91 25 be 1f ee 30 bd
       -0.067525245 -0.03538329 -0.1616867 -0.04319584
000240 22 6d e6 3c db c4 81 be 98 27 2f be 92 05 fd bc
       0.02812821 -0.253455 -0.17104948 -0.030886445
000250 40 a8 23 be 82 7e 18 be 5a 69 24 3e 21 5b 5a be
       -0.15982151 -0.14892009 0.16055813 -0.21323825
000260 9f bc 99 3c 51 fc 1e bd 91 a0 15 be 97 a9 0c bd
       0.0187667 -0.038814846 -0.14612032 -0.03434142
000270 d2 ee 3e bd fe 39 d6 bd 61 34 2f bd e9 0b 24 bd
       -0.046614476 -0.1046028 -0.04277456 -0.04005042
000280 28 3d b1 bd db 7a ca 3d b2 91 33 be e4 99 72 3d
       -0.08654243 0.09886714 -0.17536047 0.059228793
000290 de 1f f2 3d bc 7e 2f 3d fc c8 d7 bd 3d af 14 3d
       0.118224844 0.042845473 -0.105363816 0.036299933
0002a0 15 d2 cd bc 98 3c ae 3d e7 c2 11 be 3a 90 15 be
       -0.025124589 0.08507651 -0.14234506 -0.146058
0002b0 5b c6 ed bc 86 76 0e 3e 94 e7 09 3d f4 b0 16 be
       -0.029025247 0.139124 0.033668116 -0.1471594
0002c0 5f 31 0a 3d 42 26 b3 3d 9f e3 ac bd 80 26 c1 bd
       0.03373849 0.087475315 -0.08441853 -0.094311714
0002d0 0a 53 e3 3c 92 2e a5 bd 48 4e 71 3c af 5c 8c 3d
       0.027749557 -0.08065523 0.014728136 0.068536155
0002e0 b4 6b b2 3d 66 c1 31 bd b4 47 f1 bc c5 41 f3 3d
       0.08711949 -0.04339733 -0.029453136 0.11877779
0002f0 76 da d5 3a c3 83 07 3e f6 e5 c5 bc f4 1e 6e bd
       0.0016315717 0.13233857 -0.024157505 -0.058134988
000300 8d 83 4c 3d a8 05 81 bd 12 ad cc bc a6 a0 17 be
       0.049930144 -0.06299907 -0.02498487 -0.14807376
000310 66 f7 0b bd 63 42 4c bc 24 24 d4 3d 25 43 a5 3d
       -0.034171484 -0.012467 0.10358456 0.080694474
000320 d2 4f e8 3d c5 d6 7f 3d d9 e7 87 bd b3 b6 c7 bc
       0.113433495 0.06246068 -0.06636018 -0.02437911
000330 a0 ba a6 bd 96 52 4e bd 6e 9b 01 3d fa 7e 0f bd
       -0.08141065 -0.05037173 0.03164237 -0.035033204
000340 df d4 fb 3b b4 ff a9 3c 7a 7b 25 3d 7e f4 fc 3c
       0.0076852883 0.020751812 0.04040096 0.030878302
000350 9b 33 62 bd a4 a3 e1 bd 45 9a 92 bd 6d 82 a8 bd
       -0.055224996 -0.1101754 -0.07158331 -0.08228002
000360 d9 1e e6 3d 8f 63 06 bd e4 b2 48 be 34 c1 08 3d
       0.112363525 -0.03280979 -0.19599491 0.033387378
000370 11 19 13 3c c5 72 08 be 77 7e 10 3e c7 8b ca 3d
       0.008978144 -0.13325031 0.14110743 0.09889942
000380 92 50 d7 3d 07 5a cd 3d 20 b5 f3 bd 73 ba d5 bd
       0.105134144 0.10026937 -0.11899781 -0.10435953
000390 68 c2 94 bc 3d 3a 98 bd 06 f9 03 bd 01 2c 4a 3d
       -0.018159106 -0.07432983 -0.03221991 0.04935837
0003a0 cd 02 ed bd e3 ae 6e be 6e 7d a4 bd a2 8b a7 bd
       -0.115728 -0.23308901 -0.08031736 -0.0818093
0003b0 85 54 d0 3d eb f1 ae bd 17 8b 2c 3d 61 23 4b 3d
       0.10172371 -0.08542236 0.042124834 0.049594287
0003c0 aa d2 87 bd fd 6d 13 bd 61 61 51 bd 19 81 26 bd
       -0.06631978 -0.035993565 -0.05111826 -0.04065046
0003d0 3f 12 bd 3d d0 04 04 be 7d 07 0d bc 1a 72 c5 bc
       0.09231996 -0.12892461 -0.008607742 -0.02410226
0003e0 8b 80 80 be 73 8e d3 3d 7b 0e cf bd 24 88 b6 bd
       -0.2509807 0.103299044 -0.10110184 -0.089126855
0003f0 eb ac 21 be a9 6c 06 be ab fd 27 bc 52 45 17 bc
       -0.15788619 -0.13127388 -0.01025335 -0.009232836

bias f4 [10]
000000 f9 17 3f bd 33 fc 80 3d 1b 77 e7 3d f1 a9 dc bd
       -0.04665372 0.06298103 0.113020144 -0.10774601
000010 97 d5 b0 bb ff b5 28 bd 87 ee 01 be e9 49 a6 bd
       -0.0053965556 -0.04118919 -0.12688647 -0.08119566
000020 00 42 2d 3e ef 56 a9 3b
       0.16919708 0.005167834
